models/interference_model.tflite (tflite, 15220 bytes, 9 tensors)

arith.constant f4 [1, 16]
0	0x3f25aac1	0.64713675
1	0xbe6c40e3	-0.23071627
2	0x3f047ff1	0.51757723
3	0x3f3d714b	0.74000996
4	0x3f2ad989	0.6673818
5	0x3e86d0ad	0.26331082
6	0x3e85bce3	0.26120672
7	0x3e84cc40	0.2593708
8	0x3f0a5814	0.54040647
9	0x3ea39aaa	0.31953937
10	0x3f0de860	0.554327
11	0xbf27152d	-0.65266687
12	0xbe808a71	-0.25105622
13	0xbf05ebff	-0.52313226
14	0xbd4ba75e	-0.04972016
15	0xbce4ac94	-0.027914323

arith.constant1 f4 [16, 32]
0	0x3e8656c6	0.26238078
1	0x3eba8aae	0.3643393
2	0x3e759ca0	0.23985529
3	0x3e1ed839	0.1551217
4	0xbe33424a	-0.17505756
5	0xbe9ac4f8	-0.302284
6	0xbcda44e1	-0.026644172
7	0x3e58ae66	0.21160278
8	0xbd26006b	-0.040527742
9	0x3e45862f	0.19289468
10	0x3edae9fc	0.4275664
11	0xbc750203	-0.014954093
12	0x3e9c7158	0.30555224
13	0xbe0669fb	-0.13126366
14	0xbcae8ebd	-0.021308297
15	0x3db5644b	0.0885702
16	0x3eba26b8	0.36357665
17	0xbc9dacda	-0.019247461
18	0x3d7c3ce2	0.0615815
19	0x3f00b2e2	0.50272954
20	0x3ee3e495	0.44510332
21	0x3eb395ec	0.3507532
22	0x3e6294fd	0.22127147
23	0x3e7d09f3	0.24710827
24	0xbb231078	-0.0024881642
25	0xbe6e60f0	-0.23279166
26	0x3edf56b8	0.4362085
27	0x3ec46c01	0.3836365
28	0x3e303f63	0.1721168
29	0x3e91ab24	0.28450882
30	0x3ebebf2d	0.3725523
31	0xbde8e62a	-0.11372025
32	0xbd094c5f	-0.0335201
33	0x3ea0b35a	0.31386834
34	0x3d9b2038	0.075745046
35	0xbce1099e	-0.027470406
36	0x3ea75373	0.32680854
37	0xbe7687a9	-0.24075188
38	0xbe99114d	-0.29896012
39	0xbe365339	-0.17805184
40	0xbdfe219d	-0.12408755
41	0x3ded3da0	0.1158402
42	0x3c5be793	0.013421911
43	0xbe5dde99	-0.21666946
44	0xbeaa4b25	-0.33260456
45	0x3e8c242a	0.2737134
46	0x3e5fdc3d	0.21861358
47	0xbd470ca8	-0.048596054
48	0xbe6b9c5c	-0.23008865
49	0x3dd24f00	0.10268974
50	0x3e7c3513	0.24629621
51	0x3e01e9c4	0.12686831
52	0xbd2916d0	-0.04128152
53	0x3d8d26bb	0.06892153
54	0xbe83e31d	-0.2575921
55	0x3ddd3114	0.108003765
56	0x3a502e07	0.0007941429
57	0x3a0a0704	0.00052653276
58	0xbe192434	-0.14955217
59	0xbe50364b	-0.20333211
60	0xbe3a0db8	-0.18169296
61	0x3e85ffcf	0.2617173
62	0xbe6cb5fb	-0.23116295
63	0x3e33af05	0.17547233
64	0x3e2e5640	0.1702509
65	0x3ea4699c	0.32111824
66	0x3eb23988	0.34809518
67	0x3e45b311	0.1930659
68	0xbe67ff30	-0.2265594
69	0xbec1f564	-0.3788253
70	0x3f052bf1	0.52020174
71	0xbdb404ae	-0.08789955
72	0x3d981902	0.07426645
73	0x3e86196f	0.2619128
74	0x3e58f250	0.21186185
75	0x3e999a8e	0.30000728
76	0x3e8ca570	0.2746997
77	0x3eaafe2a	0.33397037
78	0xbd31166a	-0.043234266
79	0x3e1d6bd5	0.15373166
80	0x3e8670c5	0.2625791
81	0x3dad0c12	0.08449568
82	0x3e7fcb43	0.24979882
83	0xbe0634aa	-0.13106027
84	0x3d58b866	0.05291023
85	0xbd64ad16	-0.05582913
86	0x3d10d858	0.03536257
87	0x3ed75ed0	0.42064524
88	0x3dc7d217	0.09756868
89	0x3d3681b2	0.04455728
90	0x3eef9574	0.4679371
91	0x3e650214	0.22364074
92	0x3ecc80d8	0.3994205
93	0x3d266551	0.040623967
94	0x3efba5ed	0.4915003
95	0x3e147262	0.14496759
96	0x3e3558f3	0.17709713
97	0x3e9dc9b7	0.3081796
98	0x3df40fc1	0.11917067
99	0x3ee4abeb	0.44662413
100	0xbe3068d8	-0.17227495
101	0x3d89f7cc	0.06736717
102	0x3ee9ebb2	0.45687634
103	0x3ea4376f	0.32073542
104	0x3edb499d	0.428296
105	0x3f0350d6	0.5129522
106	0x3eb405da	0.35160714
107	0xbc6e67f7	-0.014551154
108	0x3e3979c4	0.18112856
109	0x3e034e71	0.12822892
110	0x3e39f3a1	0.18159343
111	0x3e982358	0.29714465
112	0x3e4269cd	0.18985672
113	0x3e7c99d5	0.24668057
114	0xbc734c10	-0.014849678
115	0x3e051350	0.12995648
116	0x3d9b0ced	0.07570825
117	0x3e69d77e	0.2283611
118	0xbd531085	-0.051529426
119	0x3e950e3d	0.29112425
120	0x3f0ccb89	0.5499807
121	0xbe60ef0d	-0.2196619
122	0x3e1fc8f0	0.15603995
123	0xbd4dd1ca	-0.0502489
124	0x3ef9340f	0.4867253
125	0x3f01aca9	0.50654083
126	0xbc86f386	-0.016473543
127	0xbe0d874c	-0.13821143
128	0x3d8b7bfb	0.06810757
129	0x3ebe4f99	0.37170103
130	0x3eb17302	0.34658056
131	0x3eb17878	0.34662223
132	0x3d0dd4be	0.034626715
133	0xbe2cdda4	-0.16881424
134	0x3ec4417a	0.38331205
135	0x3ea69bbc	0.3254069
136	0x3df2beb6	0.118527815
137	0x3eea302e	0.45739883
138	0xbd026baa	-0.031840958
139	0x3d543457	0.051807728
140	0xbd6815c0	-0.056661367
141	0x3ed276f5	0.41106382
142	0x3cc0e562	0.023546878
143	0x3efeee6d	0.4979128
144	0x3da620c4	0.08111718
145	0x3f049bff	0.5180053
146	0x3e7f78b1	0.24948384
147	0x3e786a7b	0.24259369
148	0xbd890a03	-0.06691363
149	0x3e976956	0.29572552
150	0x3ec9468d	0.39311638
151	0x3e181613	0.1485217
152	0xbd0e93b8	-0.034808844
153	0xbe7eeb1c	-0.24894375
154	0x3f06a2d0	0.5259218
155	0x3eaf6fa7	0.3426487
156	0xbd740904	-0.05957891
157	0x3d5b8869	0.053596888
158	0x3ef38652	0.47563416
159	0xbe8de9d6	-0.27717465
160	0x3e5bea51	0.21476103
161	0x3eea9a05	0.45820633
162	0x3dbe0bfb	0.09279629
163	0x3f004ae7	0.5011429
164	0xbe88e398	-0.2673614
165	0xbeca6867	-0.39532778
166	0x3ed90b58	0.42391467
167	0x3cccd8ae	0.025005665
168	0x3d91e1de	0.07123159
169	0x3e970b1a	0.29500657
170	0x3e17f7dd	0.14840646
171	0x3d568ca2	0.05238021
172	0xbdb27d61	-0.087153204
173	0x3e8d1a86	0.27559298
174	0x3e712e98	0.2355293
175	0x3e9cfdb2	0.30662304
176	0x3f06fefd	0.5273283
177	0x3d63b4d7	0.055592384
178	0x3e23491d	0.15945859
179	0xbd276597	-0.040868368
180	0xbd1d57ac	-0.03841369
181	0x3e9fb6d4	0.31194174
182	0x3e474e4f	0.19463466
183	0xbcebf6a4	-0.02880413
184	0x3ec9e5c5	0.39433113
185	0xbdd652dd	-0.10465024
186	0x3dafd9d2	0.08586468
187	0x3dd5a0b1	0.1043104
188	0x3d5749b6	0.05256053
189	0x3f0dfef4	0.5546715
190	0x3ec2d0d8	0.3804996
191	0xbdf6319f	-0.12021183
192	0x3e80dd32	0.2516876
193	0x3f0bc79f	0.5460147
194	0x3ee2d66e	0.44304222
195	0x3ebac378	0.36477256
196	0x3eafdf0e	0.34349865
197	0xbe93a3af	-0.28835818
198	0x3cbc7476	0.023004752
199	0x3ef18941	0.4717503
200	0xbc969920	-0.018383563
201	0xbd7675e7	-0.060171034
202	0x3deadac6	0.11467509
203	0x3d0dbb75	0.0346026
204	0x3ee5dd03	0.4489518
205	0x3d580cab	0.052746456
206	0x3ee8bc68	0.45456243
207	0x3e9e3a70	0.3090396
208	0x3e38be1d	0.18041272
209	0x3d3b9533	0.045796584
210	0x3edf7979	0.43647364
211	0x3ec9ab4b	0.393885
212	0xbd47ffc2	-0.048827894
213	0x3e8e9b91	0.27853063
214	0x3e8fccf5	0.28086057
215	0x3d897b47	0.067129664
216	0x3cda2117	0.026627107
217	0x3b811820	0.0039396435
218	0x3e7bd81b	0.24594156
219	0x3ecd0a89	0.400471
220	0x3eb881c5	0.36036506
221	0xbdde4bc7	-0.10854297
222	0x3e523f88	0.20532048
223	0x3e885f2f	0.2663512
224	0x3d95e367	0.07318764
225	0x3dfb6d2d	0.12276683
226	0x3ebf8cc7	0.37412092
227	0x3d88f606	0.0668755
228	0x3ea071a4	0.313367
229	0x3e53b10d	0.20673008
230	0x3e86a002	0.2629395
231	0x3cfc6c71	0.030813428
232	0x3edafc54	0.42770636
233	0x3f0ee594	0.5581906
234	0x3eb2a030	0.34887838
235	0xbe81a5cd	-0.25321808
236	0x3e96e7e8	0.29473805
237	0x3e7c0ff7	0.24615465
238	0x3d616201	0.055025104
239	0x3ee9af22	0.45641428
240	0x3eba693d	0.36408415
241	0x3f00c195	0.5029538
242	0x3d3e34e8	0.046437174
243	0xbcc21306	-0.023690712
244	0x3e4446f1	0.19167687
245	0x3e543660	0.20723867
246	0xbd21bc64	-0.039486304
247	0x3d3233be	0.043506376
248	0x3f11e8ad	0.5699566
249	0xbd8d53ef	-0.06900775
250	0x3ec25807	0.37957785
251	0x3e3dabbb	0.18522541
252	0x3e2377e8	0.1596371
253	0x3e887bda	0.2665699
254	0x3f073dfa	0.52828944
255	0xbebdf707	-0.3710253

arith.constant2 f4 [32, 64]
0	0xbd0431f3	-0.032274198
1	0x3e979860	0.2960844
2	0x3eb04819	0.34430006
3	0x3e4a26e8	0.19741404
4	0x3e0a781e	0.13522384
5	0x3e2cf16f	0.16888975
6	0x3da31a16	0.0796396
7	0x3ee1a060	0.4406767
8	0xbda0fef8	-0.078611314
9	0x3e154e5a	0.1458067
10	0x3dd74864	0.10511854
11	0x3d0e09b6	0.03467723
12	0x3e88c240	0.267107
13	0x3e58f623	0.21187644
14	0x3ee52979	0.44758204
15	0x3d39094d	0.045174886
16	0x3e9bf1a7	0.30457804
17	0x3e45d993	0.19321279
18	0x3ed62417	0.4182441
19	0x3ee38429	0.44436768
20	0x3e811c53	0.25216922
21	0x3e38e938	0.18057716
22	0x3e87b91a	0.2650841
23	0xbdfdb07f	-0.123871796
24	0x3eaa3e2b	0.33250555
25	0xbd5956f7	-0.05306145
26	0x3ddc8893	0.10768237
27	0xbd595a91	-0.053064886
28	0x3df70533	0.120615385
29	0x3ec94586	0.39310855
30	0x3e42ce15	0.19023927
31	0xbda0f705	-0.07859615
32	0xbb7c80f4	-0.003852901
33	0xbdaa73db	-0.08322879
34	0x3e8751ef	0.26429698
35	0x3e03dc1c	0.12876934
36	0x3edda39b	0.43288884
37	0x3e5543c0	0.20826626
38	0x3e963eb2	0.29344708
39	0x3d90293f	0.07039117
40	0x3e739ad8	0.23789537
41	0x3ea15ff9	0.31518534
42	0x3e9bb096	0.30408162
43	0x3c781140	0.0151408315
44	0x3e661a9c	0.22471088
45	0x3ea75fec	0.3269037
46	0x3e91e9db	0.2849873
47	0x3d52d49a	0.051472284
48	0x3e888e16	0.26670903
49	0xbe2087e4	-0.15676838
50	0x3ebc82b0	0.36818457
51	0xbce4f55d	-0.02794903
52	0x3c9a87b3	0.018863535
53	0x3eb95c0e	0.36203045
54	0xbda77751	-0.08177055
55	0x3dbd1b20	0.09233689
56	0x3e0edda3	0.13951735
57	0x3e8c593e	0.27411836
58	0xbd87a01e	-0.06622337
59	0xbc639006	-0.013889318
60	0xbe9b19a1	-0.3029299
61	0x3e6aaf4a	0.2291843
62	0x3e95084e	0.29107898
63	0x3ea33fc4	0.31884587
64	0x3e31160f	0.17293571
65	0x3ee15057	0.44006607
66	0x3ebb854a	0.3662513
67	0x3d42ee80	0.047590733
68	0x3dc04ae5	0.09389285
69	0x3e98ae3f	0.2982044
70	0x3ea71133	0.3263031
71	0x3e5e13c8	0.21687233
72	0x3e071716	0.131924
73	0x3ebd49f7	0.36970493
74	0x3e6c0249	0.23047747
75	0xbc07040e	-0.008240713
76	0x3d34f535	0.04417916
77	0x3dc31bd1	0.0952679
78	0x3d91507a	0.07095428
79	0x3ed7a88a	0.42120773
80	0x3e7926ca	0.24331203
81	0x3c3d8e1e	0.011569528
82	0x3eb6dcb4	0.35715258
83	0x3eefe888	0.46857095
84	0xbcec735d	-0.028863603
85	0x3dd2e81c	0.102981776
86	0x3ef535ac	0.4789251
87	0x3e4daa5f	0.20084523
88	0x3e04ec21	0.12980701
89	0xbde7d6cd	-0.11320267
90	0x3ea72ce8	0.32651448
91	0x3ed53ac1	0.41646388
92	0x3e80ff1c	0.25194633
93	0x3e182d57	0.14861046
94	0x3e9c3eb8	0.305166
95	0xbe89df1b	-0.26928028
96	0xbb16e9ed	-0.0023027614
97	0x3e503e26	0.20336208
98	0xbcebffde	-0.02880853
99	0x3d5a497c	0.053292736
100	0x3eb941f4	0.3618313
101	0xbe17578c	-0.1477949
102	0x3ee3795a	0.4442852
103	0x3e0da747	0.13833342
104	0x3ea3a256	0.3195979
105	0xbd9872c9	-0.074437685
106	0x3ec9a073	0.39380226
107	0x3dda53b6	0.10660498
108	0x3dfc9997	0.123339824
109	0xbd494412	-0.049137183
110	0x3ed9c8f6	0.42536134
111	0x3d4c8113	0.049927782
112	0x3e1a23ec	0.15052766
113	0x3e8f203b	0.27954277
114	0x3ebd0f43	0.36925706
115	0x3b6fbdd1	0.0036581645
116	0xbdec1252	-0.11526932
117	0x3e8374b3	0.25674972
118	0x3e3e4316	0.18580279
119	0x3e75b2a0	0.23993921
120	0x3e6e87b1	0.2329395
121	0x3e0bcd95	0.13652642
122	0x3ddd8117	0.108156376
123	0x3de1a6c0	0.11018133
124	0x3d41c259	0.047304485
125	0x3e7558cb	0.23959653
126	0xbc69e1d2	-0.014275031
127	0x3e803b7a	0.25045377
128	0xba2b5cc8	-0.0006536958
129	0x3e722aa2	0.23649076
130	0xbc85f231	-0.016350837
131	0x3e210931	0.15726162
132	0xbdd137cf	-0.10215723
133	0x3e7ca973	0.24674015
134	0x3ec82b7e	0.39095682
135	0x3ec26d1c	0.3797387
136	0x3e1ada37	0.15122305
137	0x3e851f90	0.26000643
138	0x3e5bbc54	0.2145856
139	0x3d094501	0.033513073
140	0x3e7feb03	0.24991994
141	0xbe2aeecc	-0.16692656
142	0x3e81a92a	0.25324374
143	0x3e6bd3f7	0.23030077
144	0x3e8bf6e5	0.27336803
145	0xbe2c562b	-0.16829745
146	0x3eb2f543	0.34952745
147	0x3dea805e	0.11450265
148	0x3d1d26f4	0.038367227
149	0x3e8db61b	0.27677998
150	0x3e35122f	0.17682718
151	0xbe0bcf2b	-0.13653247
152	0x3e9174ed	0.2840952
153	0x3e43f8f5	0.19137938
154	0x3e0b2b1a	0.1359066
155	0x3eccebab	0.4002355
156	0x3d47d7b0	0.04878968
157	0x3e593f55	0.21215566
158	0x3e318fa6	0.17339954
159	0xbed45df7	-0.4147794
160	0x3da20d39	0.07912678
161	0xbdddc62a	-0.108288124
162	0x3d2b7adf	0.041865226
163	0x3ec155ff	0.37760922
164	0x3ea001fa	0.31251508
165	0x3c7d8e38	0.015475802
166	0x3d9dd26a	0.07706149
167	0xbdb5965d	-0.0886657
168	0x3c861964	0.016369529
169	0xbde7a433	-0.113106154
170	0xbd43294b	-0.047646802
171	0x3dbe534d	0.09293232
172	0x3e80558e	0.25065273
173	0xbdbd14ab	-0.09232458
174	0x3e892244	0.26783955
175	0x3e964c3e	0.29355043
176	0x3e257545	0.16158016
177	0x3dfd181e	0.123581156
178	0x3afa873f	0.0019113793
179	0x3d905308	0.07047087
180	0xbe597196	-0.21234736
181	0x3e4475ac	0.19185513
182	0xbde18ce9	-0.110132046
183	0x3e2143aa	0.15748468
184	0x3e8590b0	0.2608695
185	0x3e7f9aa8	0.2496134
186	0x3d7b843b	0.0614054
187	0xbe49f6e5	-0.19723089
188	0xbeab23f1	-0.3342586
189	0x3eac87ed	0.33697453
190	0x3c20bd2d	0.009810728
191	0xbd47454b	-0.048650067
192	0x3de48765	0.11158637
193	0x3eababdb	0.33529553
194	0x3dc2809f	0.09497189
195	0x3e0dc2ef	0.13843893
196	0xbd35c508	-0.044377357
197	0x3e04fff5	0.12988265
198	0x3e9d8059	0.30761984
199	0x3befbe10	0.0073163584
200	0x3e729546	0.23689756
201	0x3e8b3f88	0.27196908
202	0x3ecea2d0	0.4035859
203	0x3de8be45	0.11364416
204	0x3eabd2d0	0.33559275
205	0x3ea8bf99	0.32958677
206	0x3e00c7b7	0.12576185
207	0x3e6fd33d	0.23420425
208	0x3e23f8a6	0.1601282
209	0x3e6d5ef0	0.23180747
210	0x3e7dc343	0.24781518
211	0x3de29884	0.11064246
212	0x3eb08704	0.3447801
213	0x3e17cfef	0.14825414
214	0x3f0aa74f	0.5416154
215	0xbddfbc22	-0.10924555
216	0x3e92f4ae	0.287023
217	0x3eaa3de7	0.33250353
218	0x3e66f17e	0.2255306
219	0x3dec2984	0.11531356
220	0x3e58f299	0.21186294
221	0x3ec6470f	0.38726088
222	0xbd3cf306	-0.046130203
223	0xbe92d7d0	-0.28680277
224	0x3e5a97e7	0.21347009
225	0xbd714bdb	-0.058910232
226	0x3e8e529c	0.277974
227	0x3ebad2bd	0.36488906
228	0x3e04279c	0.12905735
229	0x3dc4d3ea	0.09610732
230	0x3e27b68b	0.16378228
231	0x3e1136fa	0.14181128
232	0x3d81148a	0.06302746
233	0x3e97879c	0.2959565
234	0x3ec38065	0.38183895
235	0xbd4398e8	-0.047753245
236	0x3e333b31	0.17503048
237	0x3d026aca	0.031840123
238	0x3e12930a	0.14313903
239	0x3e5dfff5	0.21679671
240	0x3ca395eb	0.019968947
241	0xbd53b638	-0.05168745
242	0xbc900a0f	-0.017582921
243	0x3eb36d5d	0.35044375
244	0xbdaca542	-0.08429958
245	0x3ecdfb0b	0.40230593
246	0x3e89bb12	0.26900536
247	0x3acda54c	0.0015689521
248	0x3cc41c7d	0.023939366
249	0x3df71d52	0.12066139
250	0x3e1b55a0	0.15169382
251	0xbdbaccb0	-0.09121072
252	0xbdd71fd0	-0.10504115
253	0x3ddebf88	0.108763754
254	0x3ed21a02	0.41035467
255	0x3da4890f	0.08033954

arith.constant3 f4 [64, 6]
0	0xbdb06b7b	-0.0861425
1	0x3e8cc31b	0.27492604
2	0xbed501c6	-0.41602916
3	0xbd7fcec6	-0.062453054
4	0x3e9b796d	0.30366078
5	0x3e8109df	0.25202844
6	0xbd551299	-0.05201969
7	0xbdbf0dc0	-0.093287945
8	0xbeb83868	-0.35980535
9	0x3e344524	0.176045
10	0x3e72b130	0.23700404
11	0x3dee8ec2	0.11648323
12	0x3e0b3d00	0.13597488
13	0xbef1cb72	-0.4722553
14	0xbe56116f	-0.20905088
15	0x3dfe45d7	0.12415665
16	0xbc646683	-0.013940456
17	0x3eae5266	0.3404724
18	0xbe46b8ca	-0.19406429
19	0x3da287ab	0.07936033
20	0xbe8c1cb0	-0.27365637
21	0x3cbb5e7c	0.022872202
22	0x3e8e20d2	0.27759415
23	0x3e807042	0.25085646
24	0xbe8cd99e	-0.2750978
25	0x3e7e7e44	0.24852854
26	0xbead64ef	-0.3386607
27	0x3e28a0cc	0.16467589
28	0x3d972084	0.07379249
29	0x3de8b9d6	0.113635704
30	0x3da09a10	0.07841885
31	0x3e9d2173	0.30689582
32	0x3eb2cb1f	0.34920594
33	0x3e7cbbc0	0.24680996
34	0xbe5c738b	-0.21528451
35	0x3e53d535	0.20686801
36	0x3eed6ada	0.46370584
37	0xbe482e00	-0.19548798
38	0xbe042556	-0.12904868
39	0x3dcc99c7	0.09990268
40	0xbe2dbdf0	-0.16966987
41	0xbdf683da	-0.120368674
42	0xbe4db5dc	-0.20088905
43	0x3d79b14b	0.060960095
44	0xbef9bb84	-0.48775876
45	0x3e616b50	0.22013593
46	0xbdc4920c	-0.09598169
47	0x3e8609b4	0.26179278
48	0x3dc8e8bf	0.09810018
49	0xbdf9ff58	-0.12206906
50	0xbf032474	-0.512275
51	0xbd8d8b92	-0.069113865
52	0xbe1996b4	-0.14998895
53	0x3dc80c03	0.09767916
54	0xbe5e012b	-0.21680133
55	0xbe5c464a	-0.21511188
56	0xbe840de0	-0.25791836
57	0x3e523816	0.20529208
58	0x3dbd2fb0	0.09237611
59	0x3ecc02bb	0.39845833
60	0xbc304b08	-0.010760076
61	0xbec71eae	-0.38890594
62	0xbf0ba66b	-0.5455081
63	0xbc959074	-0.018257357
64	0x3e95aa97	0.29231712
65	0x3ebc6520	0.36795902
66	0xbe93d913	-0.28876552
67	0x3e81d123	0.2535487
68	0x3d6d2ea8	0.057905823
69	0x3e364877	0.1780108
70	0x3d5c15c4	0.053731695
71	0xbbaeea89	-0.0053380174
72	0x3e46f949	0.19431032
73	0xbecef713	-0.40422878
74	0xbebbaed6	-0.36656827
75	0xbc91a2ba	-0.01777779
76	0xbec3c1a0	-0.38233662
77	0x3ea99265	0.33119503
78	0xbe345516	-0.17610583
79	0xbda2043c	-0.07910964
80	0x3eade1cb	0.3396133
81	0x3e4434f1	0.1916082
82	0xbc0c6558	-0.008569084
83	0x3eac72e2	0.336814
84	0x3ddc75aa	0.1076463
85	0xbe57b251	-0.21064116
86	0xbeb223be	-0.34792894
87	0xbe6e3ec2	-0.23266128
88	0xbe2bd1d4	-0.16779262
89	0x3e9de599	0.30839232
90	0xbe50b4ef	-0.2038152
91	0xbee4d899	-0.446965
92	0xbdee2567	-0.11628228
93	0x3ec292b8	0.38002563
94	0x3e51838e	0.2046034
95	0x3e2fb99f	0.17160653
96	0xbe304402	-0.17213443
97	0xbe78fd49	-0.2431537
98	0xbf0b6e51	-0.54465204
99	0x3e995bfa	0.29952985
100	0xbe9fcffc	-0.31213367
101	0x3f024c54	0.5089772
102	0xbe9d48bb	-0.3071955
103	0x3dfd39d8	0.123645484
104	0xbe5cf046	-0.21576032
105	0xbe3112ea	-0.17292371
106	0x3e83eeeb	0.25768217
107	0xbe3a1e54	-0.18175632
108	0x3e2e9bd7	0.17051636
109	0x3d1c5ddd	0.038175453
110	0xbe48c37e	-0.19605824
111	0x3e4eb602	0.20186618
112	0xbecaa3d7	-0.39578125
113	0xbdc16b4c	-0.094442934
114	0x3e692665	0.22768553
115	0xbe7b8775	-0.24563392
116	0xbebaaeb6	-0.3646142
117	0xbdccbb43	-0.09996655
118	0xbe2dddd9	-0.1697916
119	0x3f03caae	0.5148114
120	0xbd89f388	-0.06735903
121	0xbd8d689c	-0.06904718
122	0xbeb29157	-0.3487651
123	0x3e46fd4d	0.19432564
124	0x3eacf04e	0.33777088
125	0x3dd5ef09	0.10445983
126	0x3d93f102	0.07223703
127	0xbd0a1315	-0.033709604
128	0xbea55a00	-0.32295227
129	0xbe22fae2	-0.15916017
130	0x3cc9a30b	0.024613878
131	0x3e9d3750	0.30706263
132	0xbe8cf5ed	-0.27531376
133	0xbe899311	-0.26870015
134	0xbecf3018	-0.4046638
135	0x3ec0bcc8	0.3764403
136	0x3e518168	0.20459521
137	0x3e2eab4b	0.1705753
138	0xbebbc32c	-0.36672342
139	0x3d4d6132	0.05014152
140	0xbd606486	-0.054783367
141	0x3e58ab12	0.21159008
142	0x3e8b2a27	0.27180597
143	0x3eba047d	0.3633155
144	0xbc50da09	-0.012747296
145	0xbea3e0b0	-0.3200736
146	0xbe875a1b	-0.26435933
147	0x3eab3565	0.33439174
148	0xbea3ca17	-0.3199012
149	0x3ba01382	0.004885138
150	0xbe7d925d	-0.24762864
151	0x3e3e8dfc	0.1860885
152	0xbe99fa05	-0.30073562
153	0x3d3ca5f6	0.04605671
154	0x3db137f0	0.08653247
155	0x3e0afafd	0.13572307
156	0x3ec5a481	0.3860207
157	0xbc873388	-0.016504064
158	0xbe713551	-0.23555495
159	0x3ec90901	0.39264682
160	0xbe1f39e2	-0.15549424
161	0xbe385eee	-0.18004963
162	0x3eae2e1a	0.34019548
163	0xbe9fa3e9	-0.3117974
164	0xbe9efe15	-0.31053224
165	0x3e95cff1	0.2926021
166	0xbe4d0307	-0.20020686
167	0xbd8b6ee3	-0.06808259
168	0x3eac1d63	0.3361617
169	0xbdce6886	-0.1007853
170	0xbef32530	-0.4748931
171	0x3b896dc9	0.0041939956
172	0xbe590345	-0.21192653
173	0x3eccccb8	0.39999938
174	0x3e22d706	0.15902337
175	0xbe06fee2	-0.13183168
176	0xbd362c5a	-0.04447589
177	0x3e3129cd	0.17301102
178	0xbebb581c	-0.3659066
179	0xbdee38f7	-0.11631959
180	0x3eb128e9	0.34601524
181	0x3e0b8ae4	0.13627201
182	0x3eb530ee	0.35388893
183	0x3cd6f8ce	0.026241686
184	0x3e130f4c	0.14361304
185	0x3cf360e0	0.02970928
186	0xbe984733	-0.2974182
187	0xbc67011d	-0.0140993865
188	0x3d1fdb33	0.039027404
189	0xbe9ee2db	-0.31032452
190	0xbd966413	-0.073433064
191	0xbe98f937	-0.29877636
192	0xbe667c21	-0.22508289
193	0x3e817c66	0.2529022
194	0xbcdbfad6	-0.026853006
195	0xbe612447	-0.21986495
196	0x3e5e4a63	0.21708064
197	0x3e515184	0.20441252
198	0xbd17ffab	-0.03710906
199	0x3e0429fb	0.1290664
200	0x3ebf4f82	0.37365347
201	0xbd14cb63	-0.036326777
202	0xbbf94f81	-0.0076083546
203	0xbe257601	-0.16158296
204	0x3ea785ee	0.32719368
205	0xbe0149e4	-0.12625843
206	0x3dc3596c	0.0953854
207	0x3e79ed87	0.24407016
208	0xbe910401	-0.28323367
209	0xbe4968e0	-0.19668913
210	0xbcb76737	-0.022388084
211	0xbe7a5db0	-0.24449801
212	0xbe0f7f69	-0.14013447
213	0x3dde700a	0.108612135
214	0x3dfdd08b	0.12393292
215	0x3e7dfaf5	0.24802764
216	0x3d3849d7	0.044992294
217	0xbeba1880	-0.36346817
218	0x3dc0a80e	0.09407054
219	0x3e9c4929	0.30524567
220	0xbeca4459	-0.3950527
221	0xbd3a5e7b	-0.04550026
222	0xbdbbb14b	-0.09164675
223	0x3d8d1c62	0.06890179
224	0xbe251d9e	-0.1612458
225	0xbe2b6025	-0.16735895
226	0x3ea58401	0.32327273
227	0x3e8a36ba	0.26994878
228	0xbe028f8c	-0.12750071
229	0xbecef92e	-0.40424484
230	0xbea9dfd5	-0.33178583
231	0x3d91135e	0.07083772
232	0xbe09bf25	-0.13451822
233	0x3ec931c9	0.39295796
234	0x3de34b5b	0.11098357
235	0xbe435be1	-0.19078018
236	0xbe056f63	-0.13030772
237	0xbe4478ec	-0.19186753
238	0x3e30b54b	0.17256658
239	0x3c51ef9b	0.012813474
240	0x3ea289cf	0.31745765
241	0xbe7b4c82	-0.24540904
242	0xbf0d1b3c	-0.5511968
243	0x3d84c83c	0.06483504
244	0xbd8dd4eb	-0.069253765
245	0x3e931f32	0.28734738
246	0xbdf0ae84	-0.11752036
247	0xbdc0cf12	-0.094144955
248	0xbd6f880e	-0.05847936
249	0xbe92af72	-0.2864948
250	0x3c2b486a	0.010454277
251	0x3ebd7d65	0.3700973
252	0xbd0992eb	-0.033587378
253	0xbee92d05	-0.4554216
254	0xbeea2ede	-0.45738882
255	0x3ed0ec98	0.40805507

arith.constant4 f4 [1, 6]
0	0x3a402595	0.0007329819
1	0x3d28bc3c	0.04119514
2	0x3d46d63e	0.04854416
3	0x3d325d6d	0.04354613
4	0x3d85a90e	0.06526385
5	0x3da06d7c	0.078333825

Const f4 [1, 6]
0	0x4578ba54	3979.6455
1	0xc244df6b	-49.21818
2	0x4232d61c	44.70909
3	0x422a53c8	42.581818
4	0xc2bbdac3	-93.92727
5	0x42b2f2b4	89.47403

sequential_1/dense_1_2/BiasAdd/ReadVariableOp f4 [32]
0	0x3e5aadf5	0.21355422
1	0x3e3c8931	0.1841171
2	0x3e0275db	0.12740271
3	0x3e40080c	0.1875307
4	0xbd15c508	-0.036564857
5	0x3d0df70e	0.034659438
6	0x3e34b6e4	0.17647892
7	0x3e575409	0.2102815
8	0x3e50837f	0.20362662
9	0x3e389206	0.18024454
10	0x3e573ae1	0.21018554
11	0xbcc2243d	-0.02369892
12	0x3e4d06b7	0.20022093
13	0x3e49b197	0.19696651
14	0x3bd1dbf3	0.006404394
15	0x3e444886	0.1916829
16	0x3e544061	0.20727684
17	0x3e48ad47	0.1959735
18	0x3d0b1834	0.03395863
19	0x3e434053	0.19067506
20	0xbd2cd3ba	-0.042194106
21	0x3e19c569	0.15016712
22	0x3e5d0d41	0.21587087
23	0x3e1f6846	0.15567121
24	0x3e48093a	0.1953477
25	0xbd1e5772	-0.038657613
26	0x3e3d1353	0.18464403
27	0x3e176475	0.14784415
28	0x3e3e9591	0.18611743
29	0x3e41dba7	0.18931447
30	0x3e3b5c84	0.1829701
31	0xbcb2a55a	-0.021807361

sequential_1/dense_1/BiasAdd/ReadVariableOp f4 [64]
0	0x3d1d3426	0.03837981
1	0x3d397e04	0.045286193
2	0x3d7b9b93	0.061427664
3	0x3d05c591	0.032659117
4	0x3d4d3630	0.050100505
5	0x3cf0e1f0	0.02940461
6	0x3e219a60	0.15781546
7	0xbd87f313	-0.066381596
8	0x3e0ae90a	0.1356546
9	0x3b1cdfe8	0.002393717
10	0x3dc1a87d	0.09455965
11	0x3e2df2ce	0.16987154
12	0x3de9cc13	0.11415877
13	0x3e190842	0.14944556
14	0x3e0fbee6	0.14037666
15	0x3decf483	0.115700744
16	0x3d5e074f	0.05420619
17	0x3c857ef3	0.016295886
18	0x3e241fc2	0.1602774
19	0x3bf3950e	0.00743354
20	0x3d90fc6f	0.07079398
21	0x3d46e6f9	0.048560116
22	0x3dc6a7c1	0.09699965
23	0x3daa41e6	0.083133504
24	0x3c9fffdf	0.019531189
25	0x3d87d191	0.066317685
26	0x3e276bb0	0.16349673
27	0x3e0463e1	0.12928726
28	0x3dffbf14	0.12487617
29	0x3e12ff02	0.1435509
30	0x3d6ae54f	0.057347592
31	0x3d35962d	0.044332672
32	0x3d241bda	0.040065624
33	0x3e199701	0.1499901
34	0x3e2b3f48	0.16723359
35	0xbcb0b63b	-0.02157127
36	0x3e396a4f	0.1810696
37	0x3c43930d	0.011936915
38	0x3e0da057	0.13830696
39	0x3d674f3e	0.056472056
40	0x3deac987	0.114642195
41	0x3d89ebdc	0.0673444
42	0x3e054ba6	0.13017139
43	0x3d52149b	0.051289182
44	0x3df9495d	0.12172196
45	0x3cf29bde	0.029615339
46	0x3ddc7d4f	0.10766088
47	0x3c18ad76	0.0093187
48	0x3e2bd0b3	0.16778831
49	0x3de86bf8	0.113487184
50	0x3d3831bd	0.04496931
51	0x3e28cb18	0.16483724
52	0x3deb5dc5	0.114924945
53	0x3cd39ee9	0.02583261
54	0x3e0df306	0.13862237
55	0x3d8aa443	0.06769612
56	0x3e1d0924	0.15335518
57	0x3e1b0d9d	0.15141912
58	0x3e12d38b	0.1433851
59	0x3e398359	0.18116511
60	0x39392132	0.00017655341
61	0x3e0b8c82	0.13627818
62	0x3e6c6628	0.23085845
63	0x3da07f4f	0.07836782

sequential_1/dense_2_1/BiasAdd/ReadVariableOp f4 [16]
0	0x3e100b4c	0.1406681
1	0xbd0054a1	-0.03133071
2	0x3e173d7e	0.14769551
3	0x3e1297bc	0.14315695
4	0x3e0e712f	0.13910364
5	0x3e367031	0.17816235
6	0x3e376538	0.17909706
7	0x3e334bbe	0.17509362
8	0x3e1618d1	0.14657904
9	0x3e28c1fd	0.1648025
10	0x3e10e685	0.14150436
11	0x3de8361b	0.11338445
12	0x3c84344e	0.016138222
13	0xbced537c	-0.028970473
14	0xbd54ec68	-0.051983267
15	0xbd1099da	-0.035302974
